default
Model: "sequential_12"
┏━━━━━━━━━━━━━━━━━━━━━━━━━━━━━━━━━┳━━━━━━━━━━━━━━━━━━━━━━━━┳━━━━━━━━━━━━━━━┓
┃ Layer (type)                    ┃ Output Shape           ┃       Param # ┃
┡━━━━━━━━━━━━━━━━━━━━━━━━━━━━━━━━━╇━━━━━━━━━━━━━━━━━━━━━━━━╇━━━━━━━━━━━━━━━┩
│ lstm_12 (LSTM)                  │ (None, 64)             │        17,152 │
├─────────────────────────────────┼────────────────────────┼───────────────┤
│ dense_23 (Dense)                │ (None, 32)             │         2,080 │
├─────────────────────────────────┼────────────────────────┼───────────────┤
│ dense_24 (Dense)                │ (None, 16)             │           528 │
└─────────────────────────────────┴────────────────────────┴───────────────┘
 Total params: 59,282 (231.57 KB)
 Trainable params: 19,760 (77.19 KB)
 Non-trainable params: 0 (0.00 B)
 Optimizer params: 39,522 (154.39 KB)

dropout
Model: "sequential_13"
┏━━━━━━━━━━━━━━━━━━━━━━━━━━━━━━━━━┳━━━━━━━━━━━━━━━━━━━━━━━━┳━━━━━━━━━━━━━━━┓
┃ Layer (type)                    ┃ Output Shape           ┃       Param # ┃
┡━━━━━━━━━━━━━━━━━━━━━━━━━━━━━━━━━╇━━━━━━━━━━━━━━━━━━━━━━━━╇━━━━━━━━━━━━━━━┩
│ lstm_13 (LSTM)                  │ (None, 64)             │        17,152 │
├─────────────────────────────────┼────────────────────────┼───────────────┤
│ dense_25 (Dense)                │ (None, 32)             │         2,080 │
├─────────────────────────────────┼────────────────────────┼───────────────┤
│ dropout_4 (Dropout)             │ (None, 32)             │             0 │
├─────────────────────────────────┼────────────────────────┼───────────────┤
│ dense_26 (Dense)                │ (None, 16)             │           528 │
└─────────────────────────────────┴────────────────────────┴───────────────┘
 Total params: 59,282 (231.57 KB)
 Trainable params: 19,760 (77.19 KB)
 Non-trainable params: 0 (0.00 B)
 Optimizer params: 39,522 (154.39 KB)

half
Model: "sequential_16"
┏━━━━━━━━━━━━━━━━━━━━━━━━━━━━━━━━━┳━━━━━━━━━━━━━━━━━━━━━━━━┳━━━━━━━━━━━━━━━┓
┃ Layer (type)                    ┃ Output Shape           ┃       Param # ┃
┡━━━━━━━━━━━━━━━━━━━━━━━━━━━━━━━━━╇━━━━━━━━━━━━━━━━━━━━━━━━╇━━━━━━━━━━━━━━━┩
│ lstm_16 (LSTM)                  │ (None, 32)             │         4,480 │
├─────────────────────────────────┼────────────────────────┼───────────────┤
│ dense_29 (Dense)                │ (None, 32)             │         1,056 │
├─────────────────────────────────┼────────────────────────┼───────────────┤
│ dropout_6 (Dropout)             │ (None, 32)             │             0 │
├─────────────────────────────────┼────────────────────────┼───────────────┤
│ dense_30 (Dense)                │ (None, 16)             │           528 │
└─────────────────────────────────┴────────────────────────┴───────────────┘
 Total params: 18,194 (71.07 KB)
 Trainable params: 6,064 (23.69 KB)
 Non-trainable params: 0 (0.00 B)
 Optimizer params: 12,130 (47.39 KB)

quarter
Model: "sequential_17"
┏━━━━━━━━━━━━━━━━━━━━━━━━━━━━━━━━━┳━━━━━━━━━━━━━━━━━━━━━━━━┳━━━━━━━━━━━━━━━┓
┃ Layer (type)                    ┃ Output Shape           ┃       Param # ┃
┡━━━━━━━━━━━━━━━━━━━━━━━━━━━━━━━━━╇━━━━━━━━━━━━━━━━━━━━━━━━╇━━━━━━━━━━━━━━━┩
│ lstm_17 (LSTM)                  │ (None, 16)             │         1,216 │
├─────────────────────────────────┼────────────────────────┼───────────────┤
│ dense_31 (Dense)                │ (None, 32)             │           544 │
├─────────────────────────────────┼────────────────────────┼───────────────┤
│ dropout_7 (Dropout)             │ (None, 32)             │             0 │
├─────────────────────────────────┼────────────────────────┼───────────────┤
│ dense_32 (Dense)                │ (None, 16)             │           528 │
└─────────────────────────────────┴────────────────────────┴───────────────┘
 Total params: 6,866 (26.82 KB)
 Trainable params: 2,288 (8.94 KB)
 Non-trainable params: 0 (0.00 B)
 Optimizer params: 4,578 (17.89 KB)

mid-half-quarter
Model: "sequential_18"
┏━━━━━━━━━━━━━━━━━━━━━━━━━━━━━━━━━┳━━━━━━━━━━━━━━━━━━━━━━━━┳━━━━━━━━━━━━━━━┓
┃ Layer (type)                    ┃ Output Shape           ┃       Param # ┃
┡━━━━━━━━━━━━━━━━━━━━━━━━━━━━━━━━━╇━━━━━━━━━━━━━━━━━━━━━━━━╇━━━━━━━━━━━━━━━┩
│ lstm_18 (LSTM)                  │ (None, 24)             │         2,592 │
├─────────────────────────────────┼────────────────────────┼───────────────┤
│ dense_33 (Dense)                │ (None, 32)             │           800 │
├─────────────────────────────────┼────────────────────────┼───────────────┤
│ dropout_8 (Dropout)             │ (None, 32)             │             0 │
├─────────────────────────────────┼────────────────────────┼───────────────┤
│ dense_34 (Dense)                │ (None, 16)             │           528 │
└─────────────────────────────────┴────────────────────────┴───────────────┘
 Total params: 11,762 (45.95 KB)
 Trainable params: 3,920 (15.31 KB)
 Non-trainable params: 0 (0.00 B)
 Optimizer params: 7,842 (30.64 KB)

